weight/policy.onnx (onnx, 844549 bytes, 8 tensors)

actor.0.weight f4 [512, 88]
0	0x3d1a1e19	0.03762636
1	0xbf22b34f	-0.63554853
2	0x3ef28f41	0.4737492
3	0x3eaca5a6	0.3372013
4	0xbea3b2eb	-0.3197244
5	0xbdd113c9	-0.10208852
6	0xbd71a5bd	-0.05899595
7	0xbe24dd7b	-0.16100113
8	0x3d15e682	0.036596783
9	0x3dc24c4c	0.09487209
10	0x3cbeead5	0.023305336
11	0x3bd05209	0.0063574356
12	0x3c933f34	0.017974474
13	0x3bb16a3d	0.005414276
14	0x3d112f79	0.035445664
15	0x3d8715c8	0.06595951
16	0xbe5e2725	-0.2169462
17	0x3d27e488	0.04098943
18	0x3d5a4c83	0.053295624
19	0xbd642106	-0.055695556
20	0x3e32a1fd	0.17444606
21	0x3e1bf524	0.15230232
22	0x3dabdad8	0.083913505
23	0x3d614774	0.054999784
24	0xbe24e896	-0.1610435
25	0x3d9c5adb	0.07634517
26	0xbd8e9d1b	-0.06963559
27	0xbd6bc90d	-0.057564784
28	0xbdd1ecaf	-0.10250222
29	0xbe1d7743	-0.15377526
30	0x3d684713	0.056708407
31	0xbd70c6a8	-0.058783203
32	0x3d3423ef	0.04397958
33	0x3d17dffa	0.037078835
34	0x3deb8904	0.11500743
35	0xbdcf61ae	-0.10126053
36	0x3d70c63c	0.0587828
37	0xbde48d35	-0.111597456
38	0x3c830e7d	0.01599812
39	0x3c8ed9fc	0.017437927
40	0x3c96e474	0.018419482
41	0x3bb6038a	0.005554621
42	0x3e21383e	0.15744111
43	0xbc642014	-0.013923664
44	0xbdfbe6f8	-0.12299913
45	0xbe092e0e	-0.13396475
46	0x3dbe84a7	0.09302645
47	0x3b344050	0.0027504154
48	0xbc8906dd	-0.016726905
49	0x3dee66d5	0.116407074
50	0xbcaffce0	-0.021482885
51	0xbdda1914	-0.106493145
52	0x3d1c0e05	0.038099308
53	0xbe0bde84	-0.13659102
54	0xbd57fa70	-0.05272907
55	0xbd305cb9	-0.043057177
56	0xbe8924cc	-0.26785886
57	0xbe1bd13c	-0.15216535
58	0xbe87fb80	-0.26559067
59	0xbe65bc9f	-0.22435234
60	0x3de54b6a	0.11196025
61	0x3e36e2df	0.17859982
62	0xbcae8d21	-0.02130753
63	0x3c072390	0.008248225
64	0xbd86e78d	-0.065871336
65	0xbd02363b	-0.03179
66	0xbc2ed7d6	-0.0106715765
67	0x3d194fc8	0.0374296
68	0x3c7abd27	0.0153038865
69	0xbcbaf174	-0.022820212
70	0xbd386eac	-0.04502742
71	0x3d9919bb	0.07475611
72	0x3bcb3dd7	0.0062024402
73	0xbd9d5fc3	-0.07684281
74	0xbbd92110	-0.006626256
75	0x3c3a119e	0.011356739
76	0xbba267d6	-0.004956226
77	0xbdadae54	-0.08480516
78	0xbd33fac1	-0.04394031
79	0xbd22487c	-0.039619908
80	0x3ccd71b4	0.025078632
81	0x3bf597f0	0.007494919
82	0x3c5935d1	0.01325746
83	0x3d24f4eb	0.040272634
84	0xbccde40c	-0.025133155
85	0x3dab9218	0.083774745
86	0x3eef5412	0.46743828
87	0x3c70ba6a	0.014692882
88	0x3f241775	0.6409829
89	0xbdeac44c	-0.11463222
90	0xbf103116	-0.563249
91	0xbe8e9251	-0.27846006
92	0xbe0b824e	-0.13623926
93	0x3d32137a	0.043475606
94	0xbd885acf	-0.06657945
95	0xbc6f02d1	-0.014588074
96	0xbd8d33e3	-0.06894662
97	0xbc0e3daa	-0.008681694
98	0xbda60ebc	-0.08108279
99	0xbe2b6b31	-0.16740109
100	0xbd56bd8d	-0.052426863
101	0x3d9b14df	0.0757234
102	0xbc74a255	-0.014931281
103	0xbe660366	-0.22462234
104	0x3e29414c	0.16528815
105	0xbe0937a3	-0.1340013
106	0xbd86f19e	-0.065890536
107	0x3da95f97	0.082701854
108	0xbe085401	-0.13313295
109	0xbe5ecf5b	-0.21758787
110	0xbe31bffb	-0.17358391
111	0x3e55cbde	0.2087855
112	0x3df967e9	0.121780224
113	0x3cbe3b47	0.023221625
114	0x3d12d144	0.035844103
115	0x3dcd5531	0.100260146
116	0x3ec13814	0.37738097
117	0xbe3945e7	-0.18093072
118	0x3db066a9	0.08613331
119	0x3b16521c	0.0022937125
120	0xbde8ecad	-0.11373267
121	0xbd8ff7d9	-0.07029695
122	0x3b9e35ae	0.0048281765
123	0x3b74dd6d	0.0037363425
124	0xbe1e2c7d	-0.15446658
125	0xbd096faf	-0.033553775
126	0xbcb8a57e	-0.02253985
127	0xbdfa2f57	-0.122160606
128	0xbdd09f18	-0.10186595
129	0xbc9bc9d3	-0.019017136
130	0xbc55c8c6	-0.013048356
131	0xbe574128	-0.21020949
132	0x3d38f623	0.04515661
133	0xbda685a0	-0.08130956
134	0xbe5a6ef7	-0.21331392
135	0x3cd48c3a	0.025945771
136	0xbd0e24ef	-0.03470319
137	0xbe0b6746	-0.13613614
138	0xbe753f3e	-0.23949906
139	0xbe4164a7	-0.18886052
140	0xbdd58c9c	-0.1042721
141	0xbc93f3c5	-0.018060574
142	0xbd518049	-0.051147733
143	0xbc8ac9c3	-0.01694191
144	0x3ef5a291	0.4797559
145	0xbe14f2fb	-0.14545815
146	0x3e62bc63	0.22142176
147	0x3e17cff9	0.14825429
148	0xbe739bdd	-0.23789926
149	0xbe1e1674	-0.15438253
150	0xbcaf5a0d	-0.021405244
151	0xbe3be1ae	-0.18347809
152	0xbd85e451	-0.065376885
153	0x3df31382	0.11868955
154	0xbc4d469a	-0.01252904
155	0xba8361d1	-0.0010023658
156	0xbde822d9	-0.11334772
157	0x3d001048	0.031265527
158	0x3dae7d28	0.085199654
159	0xbdbff47d	-0.09372804
160	0xbc9f30c8	-0.01943244
161	0x3d2d7a32	0.042352863
162	0x3d0f2662	0.034948714
163	0x3de8101d	0.11331198
164	0xbdd161de	-0.10223745
165	0xbb7deae4	-0.0038744742
166	0xbd3d32a8	-0.046190888
167	0xbe3103c5	-0.17286594
168	0xbe2c595d	-0.16830964
169	0x3d2aa1c8	0.041658193
170	0xbd2d3d94	-0.042295054
171	0xbde3f1f2	-0.11130132
172	0x3d1065bc	0.03525327
173	0xbda54c2a	-0.08071168
174	0xbe95cfac	-0.29260004
175	0xbd8f8f30	-0.07009733
176	0xbe8ba0bf	-0.27271077
177	0x3e8b3257	0.27186844
178	0x3e7c277f	0.24624442
179	0xbee4f994	-0.44721663
180	0x3d7cf89d	0.061760534
181	0x3d987623	0.07444408
182	0xbe151404	-0.14558417
183	0x3e861dfa	0.26194745
184	0x3dc59b54	0.09648767
185	0xbde87d81	-0.11352063
186	0x3d67f7bd	0.056632746
187	0xbc51410b	-0.012771855
188	0xbbff57dc	-0.007792456
189	0xbd099dc5	-0.033597726
190	0xbba1434c	-0.0049213525
191	0x3df59ef7	0.11993211
192	0x3d26a53f	0.040684935
193	0x3e7e20a6	0.24817142
194	0xbcf3f32e	-0.029779043
195	0xbdf54831	-0.1197666
196	0x3cd6f5d0	0.02624026
197	0xbd887d49	-0.06664521
198	0x3e4e6502	0.20155719
199	0x3d7d4b56	0.061839424
200	0x3c740a06	0.014894968
201	0xbd11c712	-0.03559024
202	0xbc7ab9f2	-0.015303122
203	0x3d5437d1	0.051811043
204	0xba199b38	-0.0005859616
205	0x3e96eea5	0.29478946
206	0x3dba0e43	0.090847515
207	0x3dbfb65c	0.09360954
208	0xbe34361a	-0.17598763
209	0x3d3fe5f3	0.046850156
210	0xbdcd742c	-0.10031924
211	0x3e0dc656	0.1384519
212	0x3e93d4f7	0.28873417
213	0xbe314997	-0.17313229
214	0xbe22f31a	-0.15913048
215	0x3ce945c9	0.028475659
216	0x3dc2abda	0.09505434
217	0xbd2aeb48	-0.041728288
218	0x3e080802	0.13284305
219	0x3dbc9a59	0.09209127
220	0x3b1cdb48	0.0023934413
221	0x3df6a6f8	0.120435655
222	0x3c59f171	0.013302193
223	0xbdd111c6	-0.10208468
224	0xbd62d64f	-0.05538016
225	0xbe5225b3	-0.20522194
226	0xbe304c33	-0.17216568
227	0xbdbcd237	-0.09219783
228	0x3da59eea	0.08086951
229	0xbdccfde7	-0.100093655
230	0xbb0cba36	-0.0021473295
231	0x3d84e5d8	0.06489152
232	0x3e1650e3	0.14679293
233	0x3de3a3c8	0.11115223
234	0xbe3caad0	-0.18424535
235	0x3e931ff2	0.2873531
236	0x3de6fc1e	0.11278556
237	0xbbdaf877	-0.0066824513
238	0xbe16c7b1	-0.14724614
239	0x3c66d6a0	0.0140892565
240	0x3e0ef40a	0.13960281
241	0xbe55c783	-0.20876889
242	0xbd191fe7	-0.03738394
243	0x3d262a89	0.04056791
244	0xbc660d6b	-0.014041285
245	0x3cf6791b	0.030087044
246	0xb90bbd79	-0.00013326657
247	0xbd65dba7	-0.05611768
248	0xbc4321fb	-0.011909957
249	0xbd5c862f	-0.053838905
250	0xbbb962b4	-0.0056575183
251	0x3df9701e	0.12179588
252	0xbd1b7281	-0.037950996
253	0xbd1cc3e7	-0.038272765
254	0xbdc58e6b	-0.09646305
255	0xbd813ef9	-0.06310839

actor.0.bias f4 [512]
0	0xbdaf2b03	-0.08553126
1	0xbc711b1f	-0.014715939
2	0xbdcb75d7	-0.099345855
3	0xbd8081ed	-0.062747814
4	0xbca71216	-0.020394366
5	0x3d88818d	0.06665335
6	0xbce421d4	-0.027848162
7	0x3d534b8a	0.05158571
8	0x3db06128	0.08612281
9	0xbd0f13cd	-0.034930993
10	0x3d789587	0.060689475
11	0xbd8461fe	-0.06464003
12	0xbdf7e98c	-0.121050924
13	0xbd238298	-0.039919466
14	0x3d8fdfc7	0.07025104
15	0x3d00c49e	0.03143751
16	0x3d0708c4	0.032967344
17	0xbcf3018c	-0.029663824
18	0xbe034b7b	-0.12821762
19	0x3c483db6	0.012221744
20	0x3d424bac	0.047435448
21	0x3dbfb480	0.093605995
22	0x3c71c49f	0.014756351
23	0xbda5120d	-0.080600835
24	0xbd509452	-0.0509227
25	0x3c93aa78	0.018025622
26	0xbddddd99	-0.10833282
27	0x3ba2ee18	0.0049722306
28	0xbdb8975e	-0.09013246
29	0x3c8b4235	0.016999343
30	0x3d5c4c1a	0.053783514
31	0xbcc4c6ce	-0.024020579
32	0xbd904f57	-0.07046383
33	0xbe4408e0	-0.1914401
34	0x3cd3e02f	0.025863735
35	0xbdd40eb9	-0.103543706
36	0xbddb7536	-0.107157156
37	0xbe00c73b	-0.12576
38	0x3c5c005e	0.013427822
39	0xbda0e643	-0.07856419
40	0x3dc1e72e	0.09467922
41	0xbe11040a	-0.14161697
42	0xbe2ff4c6	-0.17183217
43	0xbdb5f22f	-0.088840835
44	0x3e316870	0.17324996
45	0x3d0ee200	0.0348835
46	0x3dce74ad	0.10080848
47	0xbdb0d35d	-0.08634064
48	0x3d8265e6	0.06367092
49	0xbe129dd5	-0.1431802
50	0x3d8a0e1a	0.06740971
51	0x3e0581b0	0.13037753
52	0x3dbef7ec	0.09324631
53	0xbda5e3ef	-0.081001155
54	0xbd64e22a	-0.05587975
55	0xbe2145e0	-0.15749311
56	0xbcf8247c	-0.030290835
57	0x3e0b8026	0.13623103
58	0x3d96e55d	0.07367966
59	0xbd811526	-0.06302862
60	0x3d3afce8	0.045651346
61	0x3d30048d	0.04297309
62	0x3d52709e	0.05137693
63	0x3c85bc1b	0.016325047
64	0x3ccf4dfb	0.025305739
65	0xbe07bc6c	-0.13255471
66	0x3d17a44b	0.037021916
67	0xbca34a57	-0.019932909
68	0xbd3f1bd6	-0.046657406
69	0x3cb85218	0.022500083
70	0x3cdb2d0d	0.02675488
71	0xbdc0bd64	-0.094111234
72	0xbdb10056	-0.08642642
73	0xbdec563c	-0.115398854
74	0xbc1fbf53	-0.009750205
75	0x3d3bc93b	0.045846205
76	0xbda5471a	-0.08070202
77	0x3bd0a719	0.006367576
78	0x3d5702f3	0.052493047
79	0x3dd07078	0.10177702
80	0x3da6e018	0.08148211
81	0xbd79275b	-0.060828548
82	0x3daaff12	0.08349432
83	0x3d5514d2	0.05202181
84	0x3e100ad2	0.14066628
85	0xbcb72174	-0.022354819
86	0xbd7396b7	-0.059469905
87	0xbcde5286	-0.02713896
88	0xbd19be80	-0.03753519
89	0x3de06215	0.10956208
90	0xbcbc8957	-0.023014707
91	0x3d887984	0.06663802
92	0x3dd6628d	0.10468016
93	0x3cdf74ad	0.027277315
94	0x3d7c407e	0.061584942
95	0xbd2e0b75	-0.042491395
96	0x3d16cdf4	0.036817506
97	0x3d0dbded	0.034604955
98	0x3d217dad	0.039426494
99	0x3ae192d8	0.00172099
100	0x3c2ae6bc	0.010430988
101	0xbd059fa2	-0.03262294
102	0xbd5cbbdf	-0.053890105
103	0xbd27f752	-0.041007347
104	0x3d836ee8	0.06417638
105	0x3da8f4a3	0.08249786
106	0x3db5d937	0.08879321
107	0x3de66a4e	0.11250745
108	0xbd008037	-0.031372275
109	0x3d4036cf	0.04692727
110	0x3d59b41b	0.053150278
111	0xbd986480	-0.07441044
112	0xbd0d1085	-0.034439582
113	0x3dc38634	0.095470816
114	0xbd31ea73	-0.04343648
115	0xbdc86472	-0.097847834
116	0x3d809cd3	0.06279912
117	0xbe31e0a9	-0.17370857
118	0xbd9f65b2	-0.07783069
119	0x3da81c57	0.082085304
120	0xbca8e231	-0.020615669
121	0xbd48b041	-0.048996214
122	0xbd423feb	-0.04742424
123	0xbdc21de8	-0.094783604
124	0xbdbc14bd	-0.09183643
125	0xbe280b68	-0.16410601
126	0xbdf68816	-0.12037675
127	0x3daa9033	0.08328285
128	0xbdb56c0c	-0.08858499
129	0x3d58399f	0.052789327
130	0x3d19f04e	0.037582688
131	0x3d22a8b2	0.03971166
132	0x3dd61c90	0.104546666
133	0xbca3c8f6	-0.019993287
134	0x3d04a2d0	0.032381833
135	0xbdbb6229	-0.09149582
136	0xbd4dd3cd	-0.050250817
137	0x3d28a002	0.04116822
138	0x3da476d1	0.08030475
139	0xbc9d654c	-0.019213341
140	0x3dd5508d	0.104157545
141	0xbc3a6ce2	-0.011378499
142	0xbbc73012	-0.0060787285
143	0xbdf744b6	-0.120736524
144	0x3ba37752	0.0049885893
145	0xbcb8d705	-0.022563467
146	0x3dfbe1e9	0.12298948
147	0xbc6ef20e	-0.0145840775
148	0x3cee7972	0.029110644
149	0xbcf6f67b	-0.030146828
150	0x3d8b17a7	0.06791621
151	0xbe7f859a	-0.24953309
152	0xbd14871e	-0.03626167
153	0x3dfbae1d	0.12289069
154	0x3c7fc9b3	0.015612054
155	0xbe172e66	-0.14763793
156	0xbe276264	-0.16346127
157	0x3d9b8ff2	0.07595815
158	0x3e03f87e	0.12887761
159	0x3dd6d83a	0.10490461
160	0x3d4649f7	0.048410382
161	0xbd44c191	-0.04803616
162	0xbe070b6b	-0.1318795
163	0xbc7cb48a	-0.015423903
164	0xbd85f0df	-0.06540083
165	0xbddd1a35	-0.10796014
166	0xbd56d0c6	-0.052445196
167	0xbd78d1c0	-0.06074691
168	0x3ddc2051	0.10748351
169	0xbd8c881a	-0.06861897
170	0x3c855ed8	0.016280577
171	0xbda2840b	-0.079353414
172	0xbc19c2ab	-0.009384791
173	0x3c3a853e	0.0113843065
174	0xbd9da0c8	-0.07696682
175	0xbd621b57	-0.055201855
176	0x3db19f61	0.08672977
177	0x3d15735e	0.036486976
178	0x3c28d1b8	0.010303907
179	0x3dcc78c3	0.09983971
180	0x3d2f84aa	0.042851128
181	0xbc8099e6	-0.015698384
182	0xbd7b9499	-0.06142101
183	0xbafef465	-0.0019451497
184	0x3dff9b45	0.12480787
185	0xbd988165	-0.07446555
186	0xbc7eac40	-0.015543997
187	0xbdb88142	-0.09009029
188	0xbe496cd9	-0.19670428
189	0xbdb56781	-0.088576324
190	0xbe70643b	-0.23475735
191	0x3e04121c	0.12897533
192	0xbe9fe522	-0.31229502
193	0x3d091367	0.03346577
194	0x3dd4134d	0.10355244
195	0x3d2ccd1b	0.04218779
196	0x3d75e694	0.06003435
197	0xbe04ec63	-0.129808
198	0xbd9e6f9f	-0.07736134
199	0xbdb83e3f	-0.089962475
200	0xbe358336	-0.17725834
201	0xbd9fcefa	-0.078031495
202	0xbd1f2e68	-0.038862616
203	0xbdbd4730	-0.092420936
204	0xbd634aa4	-0.055491105
205	0xbdf63aba	-0.1202292
206	0x3d6c7c43	0.057735693
207	0xbe0ecad3	-0.13944559
208	0xbd96131c	-0.073278636
209	0x3d86fa79	0.065907426
210	0x3d8ba554	0.06818643
211	0x3cd10606	0.025515568
212	0xbdf3a5b3	-0.11896839
213	0xbe319c7f	-0.17344855
214	0xbdd38f27	-0.103300385
215	0xbd4e76f2	-0.050406404
216	0x3d0ce3ae	0.03439682
217	0x3ddb8c7d	0.107201554
218	0x3d24ffab	0.040282886
219	0x3c565eb3	0.0130841015
220	0xbd2deda7	-0.04246297
221	0xbd51cebe	-0.051222555
222	0x3dff3970	0.12462127
223	0x3d17d035	0.037063796
224	0xbcba6fa0	-0.022758305
225	0x3c568f43	0.01309568
226	0x3d8b5d34	0.068048865
227	0xbd0b936d	-0.034076143
228	0xbdcae904	-0.099077255
229	0xbddaa082	-0.10675146
230	0x3c080162	0.008301111
231	0x3d3ef01e	0.046615712
232	0x3cc3aa48	0.023884907
233	0x3c49b051	0.0123101035
234	0x3a218689	0.000616171
235	0xbd95d8d6	-0.07316749
236	0xbda18595	-0.07886807
237	0xbdcd554d	-0.100260355
238	0x3d93d31e	0.07218002
239	0xbd22f0f1	-0.03978056
240	0xbd98a968	-0.07454187
241	0x3d397939	0.045281623
242	0xbe0c7783	-0.13717465
243	0xbd7803bb	-0.060550433
244	0xbbf1568d	-0.007365054
245	0xbcf640d8	-0.030060217
246	0x3c8c5353	0.017129576
247	0xbc9b08f6	-0.018925171
248	0xbd19e032	-0.037567325
249	0xbd0a4c19	-0.03376398
250	0x3bebeb55	0.0071996846
251	0xbcfc4836	-0.030796152
252	0x3dcd0dd9	0.10012407
253	0xbdb6514a	-0.089022234
254	0xbb7038c0	-0.003665492
255	0x3dd58f74	0.10427752

actor.2.weight f4 [256, 512]
0	0x3dffa784	0.12483123
1	0xbcedf35b	-0.029046705
2	0xbc07438b	-0.00825585
3	0x3cf1d9b6	0.029522758
4	0x3c4bdee4	0.012443278
5	0xbdb79593	-0.08964076
6	0xbd07dd19	-0.03316984
7	0xbdab8cfc	-0.083765
8	0xbdac8b95	-0.08425061
9	0x3d62787f	0.055290695
10	0x3c805b67	0.015668584
11	0x3db2a62c	0.08723101
12	0x3d89128b	0.0669299
13	0xbe1beda7	-0.15227376
14	0x3cde60d5	0.027145782
15	0x3cbabe4c	0.022795819
16	0x3ca201c5	0.019776234
17	0x3e0f9070	0.14019942
18	0x3d43eef0	0.04783529
19	0xbd8d2973	-0.068926714
20	0xbd823731	-0.06358183
21	0xbd19634b	-0.03744821
22	0xbdf6f935	-0.12059251
23	0xbe2077ba	-0.15670672
24	0x3d12223d	0.035677183
25	0x3d134b6e	0.035960607
26	0x3d1ad6d0	0.037802517
27	0xbd4761c1	-0.04867721
28	0xbce178b8	-0.027523383
29	0xbd725149	-0.05915955
30	0xbdd35a19	-0.10319919
31	0xbd07033e	-0.032962076
32	0x3caced44	0.02110923
33	0x3c190d2f	0.009341522
34	0xbdaf3f81	-0.08557034
35	0x3c43bf5d	0.01194748
36	0xbd7ee611	-0.062231127
37	0xbdc8c2f4	-0.09802809
38	0xbd48ea41	-0.049051527
39	0x3da5c52e	0.0809425
40	0xbe1151fc	-0.14191431
41	0xbc1d09c5	-0.009584849
42	0x3d9f7cd6	0.077874824
43	0xbdb0f0b2	-0.08639659
44	0x3e0de3e9	0.13856472
45	0x3cba7bc7	0.0227641
46	0x39c12aa4	0.00036843598
47	0x3d960799	0.07325668
48	0xbced9307	-0.029000772
49	0xbd9fc1a2	-0.078006044
50	0x3d1d216c	0.03836195
51	0xbd892554	-0.06696573
52	0xbe246a99	-0.16056289
53	0x3dfbd511	0.122964986
54	0x3c1726fb	0.009225602
55	0x3d516f7c	0.05113171
56	0xbdc0e142	-0.094179645
57	0x3c79b3d3	0.015240627
58	0x3d5a769f	0.053335782
59	0xbdb22eb6	-0.08700316
60	0x3d96ffd6	0.073730156
61	0xbd9c7d7b	-0.07641121
62	0xbe02f09d	-0.12787099
63	0x3e139ad1	0.14414527
64	0x3d19b6e2	0.037527926
65	0xbd8cd465	-0.068764485
66	0xbcdf1505	-0.027231703
67	0xbd3b3ffd	-0.04571532
68	0x3ceedc14	0.029157676
69	0x3d53129d	0.051531423
70	0x3dab254b	0.083567224
71	0x3bf84447	0.0075764987
72	0xbe1466a6	-0.14492282
73	0x3ca53588	0.020167127
74	0x3da403d1	0.080085404
75	0xbd7693a9	-0.060199413
76	0xbb8c07a2	-0.004273371
77	0xbccafe6f	-0.024779527
78	0xbc1debc3	-0.0096387295
79	0x3d0cbafc	0.03435801
80	0x3e153593	0.14571218
81	0xbd9b113a	-0.07571645
82	0xbc604631	-0.01368861
83	0xbe70e976	-0.23526558
84	0xbdd06d80	-0.101771355
85	0x3e0b463f	0.13601016
86	0xbd3e859c	-0.04651414
87	0xbd871230	-0.06595266
88	0xbc264355	-0.010147889
89	0x3cc2c43a	0.023775209
90	0x3a2ae3f6	0.0006518954
91	0x3e671651	0.22567107
92	0xbd492aa5	-0.049112935
93	0x3d56fb1b	0.052485567
94	0xbe0af8e6	-0.1357151
95	0xbdad07b6	-0.08448736
96	0xbd9eb035	-0.077484526
97	0xbd22610b	-0.03964333
98	0x3d94e124	0.07269505
99	0x3d35dacf	0.044398125
100	0x3cf12f73	0.02944157
101	0xbd9fa201	-0.07794572
102	0x3c85e801	0.01634598
103	0x3bb9ff31	0.005676173
104	0x3e06a39b	0.13148348
105	0xbc81e6e1	-0.015857162
106	0xbd1d2baf	-0.038371738
107	0xbdfce4e3	-0.12348344
108	0x3dc75e6b	0.09734806
109	0xbe3d02a0	-0.18458033
110	0xbe06134a	-0.13093296
111	0xbc99f001	-0.0187912
112	0xbe16cccf	-0.14726566
113	0x3d8ca4b1	0.0686735
114	0xbc826620	-0.015917838
115	0xbd9d2957	-0.076739006
116	0xbc514580	-0.012772918
117	0x3c7ed7a6	0.015554344
118	0xbceea685	-0.029132137
119	0xbc6749f9	-0.014116758
120	0xbd9ddf4d	-0.07708607
121	0x3e1275fd	0.14302821
122	0xbca18556	-0.0197169
123	0x3d60336d	0.054736543
124	0xbd790629	-0.06079689
125	0x3db832e0	0.08994079
126	0x3d8fe7c8	0.07026631
127	0x3ce1eeb0	0.027579635
128	0xbbfb5621	-0.0076701795
129	0xbce8d7ab	-0.028423151
130	0xbbb0b916	-0.0053931577
131	0xbda5b9ab	-0.08092054
132	0x3d4b823d	0.04968475
133	0x3c92bc9d	0.017912203
134	0xbdbce1d1	-0.092227586
135	0xbdcef27c	-0.10104844
136	0xbdbbed06	-0.09176068
137	0xbdd263f5	-0.102729715
138	0xbdacc2fa	-0.08435626
139	0x3d8b3767	0.067976765
140	0x3e26671b	0.16250269
141	0xbdc31abc	-0.095265836
142	0x3de0ac30	0.10970342
143	0x3d094094	0.033508852
144	0x3da48480	0.08033085
145	0xbcfa1b66	-0.030530643
146	0xbe5e3229	-0.21698822
147	0x3d3c00d0	0.045899212
148	0x3cea5fa3	0.028610056
149	0xbc58e57d	-0.013238308
150	0x3d750af8	0.059824914
151	0x3d8ea985	0.06965927
152	0xbd718725	-0.058966774
153	0xbde19762	-0.11015202
154	0xbd79c07a	-0.060974576
155	0xb9f07be5	-0.00045868676
156	0x3d23d4f6	0.039998017
157	0xbb89f601	-0.004210234
158	0xbde1198b	-0.109912
159	0xbd83dcbd	-0.06438587
160	0xbd55db31	-0.05221099
161	0xbe7b97fa	-0.24569693
162	0xbd682686	-0.056677364
163	0xbe14c1f2	-0.1452711
164	0x3db026bf	0.0860114
165	0xbd9549c3	-0.072894596
166	0x3dd25f07	0.10272031
167	0x3d133fe5	0.035949606
168	0x3e29f34e	0.1659672
169	0xbdf2a337	-0.11847537
170	0x3ca184ab	0.019716581
171	0x3d0a7972	0.033807226
172	0x3d3febd1	0.04685575
173	0xbe2f57df	-0.17123364
174	0xbdf8804c	-0.12133846
175	0x3d8cb202	0.0686989
176	0x3ce56d45	0.028006205
177	0xbd99b5b5	-0.07505361
178	0xbd91d40d	-0.071205236
179	0xbd7ba9c6	-0.061441205
180	0xbd9d3163	-0.076754354
181	0xbd8da88c	-0.069169134
182	0xbc027c94	-0.007964272
183	0xbd8dfe13	-0.069332264
184	0xbd99562b	-0.07487138
185	0xbd64b9ab	-0.05584113
186	0x3d787521	0.060658578
187	0x3b948ce8	0.004533399
188	0x3ddfd1fb	0.109287225
189	0x3dbfcb32	0.09364928
190	0xbcc35561	-0.023844423
191	0x3a91dca6	0.001112838
192	0x3dd287e8	0.10279828
193	0x3c67cf0a	0.014148483
194	0xbdac6d82	-0.084193245
195	0x3b8acea3	0.004236059
196	0xbd748b1d	-0.05970298
197	0xbd4faac9	-0.050699983
198	0xbda6099f	-0.08107304
199	0x3d0cc23e	0.03436493
200	0x3dac6a82	0.08418752
201	0x3e23496b	0.15945975
202	0x3dad3bff	0.08458709
203	0x3d88cad2	0.0667931
204	0x3bf3be23	0.0074384375
205	0xbdc87bbf	-0.09789228
206	0xbd04cbe2	-0.032421
207	0x3cd6a95b	0.026203802
208	0xbca6977b	-0.020335903
209	0xbcad13ce	-0.021127608
210	0xbd9c9363	-0.07645299
211	0xbd81079d	-0.0630028
212	0x3c8341e3	0.016022628
213	0x3d3268f2	0.043557115
214	0xbc3be030	-0.011467025
215	0x3d4f4372	0.05060143
216	0xbdbb6a51	-0.091511376
217	0x3cc8547d	0.02445435
218	0x3c33c9e1	0.010973425
219	0x3d9cb533	0.076517485
220	0xbd9e13ec	-0.077186435
221	0x3b53e275	0.0032331024
222	0xbce61890	-0.028087884
223	0xbc5c625f	-0.013451188
224	0xbd19049f	-0.037357923
225	0x3d98f4a2	0.07468535
226	0xba9e8229	-0.0012093234
227	0x3c2f28cd	0.01069088
228	0xbc86ab01	-0.016438963
229	0xbc0d56f0	-0.008626685
230	0x3d1d4780	0.038398266
231	0xbe010437	-0.12599264
232	0xbd21f475	-0.039539773
233	0xbdcc1b47	-0.0996614
234	0xbdf054f3	-0.11734953
235	0x3d129f5d	0.035796512
236	0x3db59148	0.08865601
237	0xbd2fa43b	-0.04288123
238	0x3db12820	0.08650231
239	0x3d47567b	0.04866646
240	0x3b40a198	0.0029393192
241	0xbd1bdbd5	-0.038051445
242	0xbbc8b098	-0.0061245672
243	0x3d71ca66	0.059030913
244	0x3dcb6f41	0.099333294
245	0xbc196b14	-0.009363908
246	0xbdd25176	-0.10269444
247	0x3d614e50	0.055006325
248	0x3c50e7e2	0.012750598
249	0xbc962355	-0.018327395
250	0xbd422eb9	-0.04740784
251	0xbd9ae7b0	-0.07563722
252	0xbc9893a0	-0.01862508
253	0xbc7b79ca	-0.015348861
254	0x3d9bc105	0.07605175
255	0xbc723505	-0.014783149

actor.2.bias f4 [256]
0	0xbe051624	-0.12996727
1	0x3bcecb55	0.00631086
2	0xbca66f16	-0.020316642
3	0xbe0781c7	-0.132331
4	0xbe082511	-0.1329539
5	0xbad9871d	-0.0016596053
6	0xbd4f0677	-0.050543275
7	0xbe353ab8	-0.1769818
8	0xbd2e2f95	-0.042525847
9	0xbd8a202b	-0.06744417
10	0xbdcf11f5	-0.10110847
11	0xbe979dd0	-0.2961259
12	0xbc05daea	-0.008169869
13	0xbd2565a2	-0.040380128
14	0xbd9f2f30	-0.07772672
15	0xbe2e7960	-0.17038488
16	0xbd5a8cfc	-0.05335711
17	0xbdeb0eee	-0.11477457
18	0xbd2968d5	-0.04135974
19	0xbdf369ba	-0.118854
20	0xbd1730fc	-0.03691195
21	0xbdab80a7	-0.08374148
22	0xbcfb771d	-0.030696446
23	0xbe085706	-0.13314447
24	0xbdd402b1	-0.10352076
25	0xbd54ebc7	-0.051982667
26	0xbd91a7e8	-0.07112104
27	0xbcee9ecf	-0.02912846
28	0xbdcfbc0e	-0.101432905
29	0xbc0a2438	-0.008431487
30	0xbdcfe75d	-0.10151551
31	0xbdfed064	-0.12442091
32	0xbd4b2074	-0.049591497
33	0xbeb2b73c	-0.34905422
34	0xbdd0ce8c	-0.10195646
35	0xbd50df2f	-0.050994094
36	0xbc4c4943	-0.012468639
37	0x3c9c7242	0.019097451
38	0xbdbc94e2	-0.09208085
39	0xbe36034c	-0.17774695
40	0xbcb662f1	-0.022263976
41	0xbdbe3ecf	-0.092893235
42	0xbda5c8e8	-0.080949605
43	0xbdb5b797	-0.088729076
44	0xbd8cbeab	-0.068723045
45	0x3d2b67a8	0.0418469
46	0xbdc9cc5e	-0.09853433
47	0xbec15ad3	-0.37764606
48	0xbe12f901	-0.143528
49	0xbdce8612	-0.10084166
50	0xbdebe56b	-0.115183674
51	0xbe2fc7c0	-0.17166042
52	0xbd5f309b	-0.054489713
53	0x3d5bd145	0.05366637
54	0xbd75512c	-0.059891865
55	0xbe17900c	-0.14801043
56	0x3cd3ba9a	0.025845814
57	0xbdb835aa	-0.089946106
58	0xbcca403c	-0.024688832
59	0x3a782ac5	0.00094668224
60	0xbcbc2907	-0.022968782
61	0xbcd5ae9d	-0.026084239
62	0xbdd1c9c4	-0.10243562
63	0x3cec60d5	0.028854767
64	0xbc922177	-0.017838223
65	0xbe2911ae	-0.1651065
66	0xbeac86df	-0.33696648
67	0xbdb56154	-0.088564545
68	0xbe300494	-0.17189246
69	0xbd4cd8d2	-0.050011463
70	0xbe700221	-0.23438312
71	0xbe2fa093	-0.17151098
72	0xbdb73070	-0.089447856
73	0xbdcd7cdf	-0.10033583
74	0xbd2ff5b4	-0.04295893
75	0xbd2f6ff8	-0.04283139
76	0xbd530a69	-0.0515236
77	0xbe3b61ba	-0.18298998
78	0xbd37c4c5	-0.04486539
79	0xbcdac672	-0.026705954
80	0xba3ec82f	-0.00072777545
81	0xbdd480fa	-0.10376163
82	0xbe30d900	-0.17270279
83	0xbe0d03a2	-0.13770917
84	0xbe08fbc2	-0.13377288
85	0xbdd5ef9d	-0.10446093
86	0xbe04fb1f	-0.1298642
87	0xbe0905ec	-0.13381165
88	0xbda47273	-0.08029642
89	0xbd4f72fb	-0.050646763
90	0xbd8010e2	-0.0625322
91	0x3c6b67b9	0.014367991
92	0x3c2f4918	0.010698579
93	0xbdd36e49	-0.103237696
94	0xbe3aa842	-0.18228248
95	0x3d8de4eb	0.06928428
96	0xbd9acda1	-0.07558752
97	0x3c3852c1	0.011250199
98	0xbe4958fa	-0.19662848
99	0xbda3c373	-0.07996263
100	0xbd9ead21	-0.077478655
101	0xbd5e53bb	-0.05427907
102	0x3c18cc07	0.009325988
103	0x3c522aa0	0.012827545
104	0xbe56e2ec	-0.20985001
105	0xbdeb5380	-0.11490536
106	0xbdf4aabc	-0.119466275
107	0xbe2e4bb3	-0.17021064
108	0xbd82c9fa	-0.0638618
109	0xbdcddbb8	-0.10051674
110	0xbec64e34	-0.3873154
111	0x3bdff1cb	0.006834244
112	0xbea9563d	-0.33073607
113	0xbe724628	-0.23659575
114	0xbcd8f9c1	-0.02648628
115	0xbd403775	-0.046927888
116	0xbe2951a5	-0.16535051
117	0xbe154342	-0.14576438
118	0xbe3e56cb	-0.18587796
119	0xbe15e12d	-0.14636679
120	0xbd77a30f	-0.06045824
121	0xbdded352	-0.1088015
122	0xbd10a8d8	-0.035317272
123	0xbd81d560	-0.06339526
124	0xbe0ae1ae	-0.13562652
125	0xbe298c16	-0.16557345
126	0xbdeb1231	-0.11478079
127	0xbd9bd081	-0.07608128
128	0xbcfd32af	-0.030907957
129	0xbdf5a04d	-0.119934656
130	0xbcf44399	-0.02981739
131	0xbd8c6951	-0.06856025
132	0xbcedd39a	-0.029031564
133	0xbd92a583	-0.07160475
134	0x3d5a6a81	0.053324226
135	0xbe1a1f00	-0.15050888
136	0xbd5cdf4e	-0.053923897
137	0xbe5b348a	-0.21406761
138	0xbba2ae03	-0.0049645915
139	0xbe0d60be	-0.13806435
140	0xbdbdf2c8	-0.092748225
141	0xbde63657	-0.11240833
142	0xbdfafc97	-0.12255209
143	0xbd887216	-0.06662385
144	0xbe6fb2fe	-0.23408124
145	0xbd8a5962	-0.0675533
146	0xbd8131db	-0.06308337
147	0xbdaae54b	-0.083445154
148	0xbc5b548b	-0.013386856
149	0xbe88fe1f	-0.2675638
150	0xbe731814	-0.23739654
151	0xbdb43228	-0.08798629
152	0x3d69d80a	0.057090797
153	0xbd97d757	-0.0741412
154	0xbe23f10e	-0.16009924
155	0xbd9e0165	-0.0771511
156	0xbdec68ff	-0.11543464
157	0xbd8d1412	-0.06888594
158	0xbd923189	-0.07138354
159	0xbd811f5f	-0.06304812
160	0xbd8db43a	-0.06919141
161	0xbdad7eaf	-0.084714286
162	0xbddb552e	-0.10709606
163	0x3d17ad2e	0.03703039
164	0xbdbb1e48	-0.09136635
165	0xbdf566de	-0.11982511
166	0xbe140665	-0.14455564
167	0xbeb9a52a	-0.36258823
168	0xbdc823e7	-0.09772473
169	0xbc259438	-0.010106139
170	0xbded39ab	-0.11583265
171	0xbdce4cf3	-0.10073271
172	0x3cc3b12e	0.023888197
173	0x3c08e2f2	0.008354889
174	0xbe6e89f5	-0.23294814
175	0xbeb11bb8	-0.3459146
176	0xbd78b5d2	-0.060720272
177	0xbdb9bb7d	-0.09068964
178	0xbcf8f4b3	-0.03039012
179	0x3c7098eb	0.014684896
180	0xbe5f78da	-0.21823445
181	0xbdfec5f7	-0.124401025
182	0xbe071657	-0.13192116
183	0xbdbfda10	-0.09367764
184	0x3c86aa5a	0.016438652
185	0xbdbd6244	-0.09247258
186	0xbdc74de1	-0.09731651
187	0xbdcf60a1	-0.101258524
188	0xbda108f8	-0.07863039
189	0xbd46433b	-0.04840396
190	0xbe2a32cf	-0.16620944
191	0xbe04a517	-0.12953602
192	0x3d4edc28	0.050502926
193	0x3be1b266	0.006887722
194	0xb9f1dcec	-0.00046131702
195	0xbb9170e7	-0.004438508
196	0xbe1fc921	-0.15604068
197	0xbe0091e4	-0.12555653
198	0xbce30fd6	-0.027717512
199	0xbcd11d68	-0.025526717
200	0x3d00ae16	0.03141602
201	0xbe4b502f	-0.19854806
202	0xbe1acf7a	-0.15118209
203	0x3cd1dd60	0.025618255
204	0xbdb650a4	-0.089021
205	0xbe7c34d0	-0.24629521
206	0xbe2476bf	-0.16060923
207	0xbc683ede	-0.014175145
208	0xbe0c7893	-0.1371787
209	0xbc75d922	-0.015005382
210	0xbd1477b4	-0.03624697
211	0xbe122f2f	-0.14275812
212	0xbd5746e3	-0.052557837
213	0xbe0176f1	-0.12643029
214	0xbdcbb50d	-0.09946642
215	0xbda27952	-0.07933296
216	0xbd819df0	-0.06328952
217	0xbd777808	-0.060417205
218	0xbda97048	-0.08273369
219	0xbd46c23b	-0.048525076
220	0xbd157d88	-0.03649667
221	0xbc769e8c	-0.015052449
222	0xbde2bbf2	-0.11071004
223	0xbe0b6df6	-0.13616166
224	0xbe25539c	-0.16145176
225	0xbddea812	-0.108719006
226	0xbd9407f5	-0.0722808
227	0x3c541168	0.012943603
228	0xbe710366	-0.23536453
229	0xbe167846	-0.14694318
230	0xbe548592	-0.20754078
231	0xbe69a2ca	-0.22816005
232	0xbdbd94ec	-0.0925692
233	0xbdbd3a5d	-0.092396475
234	0xbc5d879a	-0.013521099
235	0xbd2ee2c3	-0.042696726
236	0xbdd1ee46	-0.10250525
237	0xbe18e466	-0.14930877
238	0xbdd0a59b	-0.10187837
239	0xbd94da23	-0.07268169
240	0xbd9b9283	-0.07596304
241	0xbdf69369	-0.12039835
242	0xbdc847bc	-0.09779307
243	0xbdf357c1	-0.11881972
244	0xbe0af574	-0.13570195
245	0x3c9abad9	0.018887924
246	0xbc2d963f	-0.0105949035
247	0xbd02ece1	-0.031964187
248	0xbc9c846d	-0.019106114
249	0xbd2f548a	-0.042805232
250	0xbeabadf8	-0.33531165
251	0xbd61ca10	-0.055124342
252	0xbca755d4	-0.020426668
253	0x3c09ae49	0.008403369
254	0xbdeef5c0	-0.11667967
255	0xbdf88cf3	-0.12136259

actor.4.weight f4 [128, 256]
0	0x3c6cf395	0.014462371
1	0x3d167d06	0.036740325
2	0xbd23a575	-0.039952714
3	0xbdd1adb5	-0.1023821
4	0xbd18ddef	-0.037321027
5	0xbc855cb9	-0.016279565
6	0x3d53dccc	0.05172424
7	0x3d318f9f	0.04334986
8	0xbc940b58	-0.018071815
9	0x3d96027d	0.07324693
10	0x3caabf28	0.020843104
11	0xbc90bf0c	-0.017669223
12	0x3cbf5de4	0.0233602
13	0x3ce18ad2	0.027532015
14	0xbcd7c95c	-0.026341133
15	0xbcc12b41	-0.023580195
16	0x3ce399f4	0.027783372
17	0x3bf3b75d	0.00743763
18	0x3c43a610	0.011941448
19	0xbc6745dd	-0.014115778
20	0x3cf9d1e7	0.030495597
21	0xbd362852	-0.044472046
22	0xbcb4c3bc	-0.02206599
23	0x3c814592	0.015780244
24	0x3cfb0130	0.030640215
25	0x3d4ff2be	0.050768606
26	0x3d0d4707	0.034491565
27	0xbca9a266	-0.02070732
28	0x3b1267f7	0.00223398
29	0x3d46405c	0.04840122
30	0x3bf9fe6a	0.0076292055
31	0x3cc2db26	0.023786139
32	0x3d5d7935	0.05407067
33	0x3ceed126	0.029152464
34	0xbd019b35	-0.031642158
35	0xbc13c184	-0.009018306
36	0xbc7bd777	-0.015371195
37	0xbd830aaf	-0.06398522
38	0xbc6218f5	-0.0137998955
39	0xbd522966	-0.051309012
40	0xbbb6d8a0	-0.005580023
41	0x3d5b886d	0.053596903
42	0xbc983d37	-0.018583877
43	0x3d5b1a9f	0.053492185
44	0x3d9e7083	0.07736304
45	0x3c63b4c0	0.013898075
46	0x3d9c5c87	0.07634836
47	0xbc8c19fd	-0.017102236
48	0x3ce94b83	0.02847839
49	0x3dd23c3d	0.10265396
50	0x3ccdecce	0.025137331
51	0xbce85f67	-0.028365804
52	0xbb80c51c	-0.0039297473
53	0xbcce0900	-0.025150776
54	0x3d8c9c72	0.06865777
55	0x3bd918a6	0.006625253
56	0xbd6c8b23	-0.05774988
57	0xbd114784	-0.035468593
58	0x3d4ba244	0.049715295
59	0xbd2531a4	-0.040330544
60	0x3d0fb2ca	0.035082616
61	0xbce01138	-0.02735196
62	0x3c2f426a	0.010696987
63	0xbd6aec11	-0.057354037
64	0x3c862817	0.016376538
65	0xbd6168be	-0.05503153
66	0x3c8157bf	0.01578891
67	0xbd59f4f2	-0.053212114
68	0x3cbfc64d	0.023409987
69	0x3b361656	0.002778431
70	0x3d97fd2c	0.074213356
71	0x3d1ac64d	0.03778677
72	0x3d33c615	0.043890078
73	0xbe0706c3	-0.13186173
74	0xbcf6e0e4	-0.030136533
75	0xbcc394b6	-0.023874622
76	0x3b1cbb1e	0.0023915241
77	0x3d128863	0.0357746
78	0xbcc6be45	-0.02426065
79	0xbb9f34b4	-0.0048585776
80	0xbcdd5a46	-0.027020585
81	0xbd63f5a5	-0.055654187
82	0xbc983344	-0.018579133
83	0x3d5c672e	0.053809337
84	0xbca2a626	-0.019854616
85	0x3c4fe0ce	0.012687875
86	0x3a91f0d1	0.0011134391
87	0x3c5d89e4	0.013521645
88	0xbd19e0b1	-0.037567798
89	0x3ccd07fa	0.025028218
90	0x3aacd8b4	0.0013187141
91	0x3cc0a16b	0.02351447
92	0xbd0171c3	-0.031602632
93	0xbc3a860b	-0.011384497
94	0x3d5927c8	0.053016454
95	0xbdb6d0a9	-0.089265175
96	0x3d547a18	0.05187425
97	0x3cb6d0bc	0.02231633
98	0xbcb45a83	-0.022015816
99	0x3c72641d	0.014794377
100	0x3d1f98f7	0.038964238
101	0xbcfd0f01	-0.030890943
102	0xbd0c2737	-0.034217086
103	0xbbde0ab5	-0.0067761787
104	0x3c15950c	0.009129774
105	0xbc7eeaa7	-0.015558875
106	0xbc402eb0	-0.011729881
107	0x3b5487d8	0.0032429602
108	0xb80ade84	-3.3108998e-05
109	0x3c8cf799	0.017207908
110	0xbd33f759	-0.04393706
111	0xbc13d7ff	-0.009023665
112	0xbc9d5026	-0.019203257
113	0x3cdf0565	0.027224252
114	0xbd0800f4	-0.033204034
115	0x3d8213aa	0.06351407
116	0x3b80728c	0.003919905
117	0xbd83a5ae	-0.06428085
118	0x3d56fa10	0.052484572
119	0x3cb19e8e	0.02168205
120	0xb9ea9cdc	-0.00044748827
121	0xbd3dbe0a	-0.046323813
122	0x3d4af26e	0.049547605
123	0xbc193793	-0.009351629
124	0x3d69848f	0.057011183
125	0xbdaad328	-0.08341056
126	0x3d80bef6	0.06286423
127	0x3d010841	0.031502012
128	0x3bc118dc	0.005892856
129	0xbd3a89d5	-0.045541603
130	0x3d92e291	0.0717212
131	0x3d15cdc7	0.036573198
132	0xbc9dd71a	-0.019267607
133	0xbc0f4dcc	-0.008746576
134	0xbc6e9f47	-0.014564342
135	0x3bfd4e41	0.007730276
136	0xbde1acc9	-0.11019284
137	0xbbd55d9e	-0.006511404
138	0xbb9ff7fc	-0.004881857
139	0x3b89ba2d	0.004203102
140	0x3b712321	0.003679462
141	0xbd9f8801	-0.077896126
142	0x3d8ae543	0.067820095
143	0xbcc53ac6	-0.024075877
144	0xbdab2c5c	-0.0835807
145	0x3cee94f8	0.029123768
146	0x3d0ca818	0.034339994
147	0x3c5ca328	0.013466634
148	0x3c4cf415	0.012509366
149	0x3c95de6e	0.01829454
150	0xbd5c20c6	-0.053742193
151	0xbc06bff3	-0.008224475
152	0xbc9e4709	-0.019320982
153	0x3adf47ad	0.0017034911
154	0x3c9f643c	0.019456975
155	0xb912fdcf	-0.00014018196
156	0xbd96e47d	-0.073677994
157	0x3d87783a	0.06614728
158	0xbd093bc5	-0.033504266
159	0xbc149a7a	-0.009070033
160	0xbcb0183c	-0.02149593
161	0xbd1ac3b5	-0.037784297
162	0x3cb13cb1	0.021635385
163	0xbbac6acf	-0.005261756
164	0x3ab554e7	0.0013834507
165	0xbd68b42e	-0.056812458
166	0xbcfd7bd5	-0.030942837
167	0xbb6dbe56	-0.003627678
168	0xbbfbe69d	-0.0076874034
169	0x3c59622a	0.013268033
170	0x3b47efb5	0.0030507867
171	0x3d00d94e	0.031457238
172	0x3c3d7032	0.011562394
173	0x3b94f280	0.00454551
174	0xbd5f4bd5	-0.05451568
175	0x3a97a4a9	0.0011569458
176	0x3d80786e	0.0627297
177	0x3ce608cf	0.028080372
178	0x3c93c5ee	0.018038716
179	0x3d665c7d	0.056240547
180	0xbb9bbc60	-0.0047526807
181	0xbc46dafb	-0.01213717
182	0xbc2376a7	-0.009977019
183	0x3dbbe482	0.09174444
184	0x3cd8dc40	0.02647221
185	0x3beab35a	0.0071624937
186	0xbcc0aae3	-0.023518985
187	0xbd1dd2ae	-0.038530998
188	0xbbb3c6f2	-0.0054863626
189	0x3d8f7bd9	0.07006044
190	0xbdc073e8	-0.09397107
191	0x3d082f7a	0.033248402
192	0xbdbc73b2	-0.09201755
193	0x3d5f94c5	0.054585237
194	0xbd9852fd	-0.07437704
195	0x3c88f011	0.016716035
196	0x3d244322	0.040103085
197	0xbd4be481	-0.049778465
198	0xbca38896	-0.01996259
199	0xbd64fb4f	-0.05590373
200	0xbca3b561	-0.01998395
201	0x3d2ad4a3	0.041706692
202	0x3da20f00	0.07913017
203	0x3d38d337	0.045123305
204	0x3b897e9e	0.004196002
205	0x3c8fa9e5	0.017537067
206	0xbcfd11cf	-0.03089228
207	0x3d247fb6	0.040160857
208	0xbcb62c16	-0.022237819
209	0xbd65b4d9	-0.056080673
210	0xbcee045d	-0.029054815
211	0x3cbf8942	0.02338088
212	0xbdb34ebf	-0.08755254
213	0xbd1bbd17	-0.038022127
214	0x39af50ef	0.000334389
215	0xbd50ac6a	-0.050945677
216	0x3c87ba31	0.016568275
217	0x3a4f5485	0.0007909018
218	0xbafcb6f2	-0.0019280596
219	0x3bffb73d	0.007803826
220	0x3d095978	0.03353259
221	0xbc70a455	-0.014687617
222	0x3b259b25	0.0025269475
223	0x3c26fd58	0.010192238
224	0xbd71e0f4	-0.059052423
225	0xbc3e4747	-0.0116136735
226	0xbd885e21	-0.06658579
227	0xbd400990	-0.04688412
228	0x3dc52dab	0.09627851
229	0xb9b51343	-0.0003453736
230	0xbadbfc90	-0.0016783644
231	0x3abc722e	0.001437729
232	0xbd0abbb9	-0.033870433
233	0x3d24c195	0.040223677
234	0x3d382fca	0.04496745
235	0x3d614787	0.054999854
236	0xbd874041	-0.06604052
237	0x3c9129bd	0.017720098
238	0xbd0230c9	-0.031784806
239	0xbd696074	-0.05697675
240	0x3cc1b376	0.023645144
241	0xbd194186	-0.037416004
242	0x3cf8bf5e	0.030364688
243	0x3c183476	0.009289851
244	0xbbc996f5	-0.0061520287
245	0x3d3eb6a3	0.046560895
246	0xbd16c8a6	-0.036812447
247	0x3cdb4f7a	0.026771296
248	0xbd34f2d9	-0.04417691
249	0xbd246ebb	-0.040144663
250	0x3c9afc2a	0.01891907
251	0x3bac5788	0.005259458
252	0xbc494f25	-0.012286936
253	0xbdee8213	-0.116459034
254	0xbc03ab23	-0.008036408
255	0x3d59b74b	0.053153317

actor.4.bias f4 [128]
0	0xbc9d3ddc	-0.019194536
1	0xbd81d4c8	-0.06339413
2	0xbcf5fbf3	-0.030027365
3	0x3bdab1ca	0.006674026
4	0x3c346e8f	0.011012687
5	0xbd9c20d1	-0.07623447
6	0xbd9d44f1	-0.07679165
7	0xbd9ac2ce	-0.07556687
8	0xbd03db5a	-0.03219161
9	0xbd70da92	-0.058802195
10	0x3cb52b6c	0.022115432
11	0xbe2a128c	-0.16608638
12	0xbdaf7685	-0.08567528
13	0x3c38dc80	0.01128304
14	0xbc79a548	-0.01523716
15	0xbc9eb3f5	-0.01937292
16	0xbd8675b8	-0.06565422
17	0xbe10e1e6	-0.14148673
18	0xbdbb53c7	-0.09146839
19	0xbd2f4bb5	-0.04279681
20	0xbda62dd8	-0.08114213
21	0xbd45316e	-0.048142843
22	0xbbd6ccd6	-0.00655518
23	0xbd7fff53	-0.062499356
24	0xbe229d02	-0.15880206
25	0xbd867c11	-0.065666325
26	0xbd1c4858	-0.03815493
27	0xbcb1c431	-0.021699997
28	0xbc988ba8	-0.01862128
29	0xbd3abf56	-0.04559263
30	0xbdfe4464	-0.12415388
31	0xbdaeec76	-0.08541195
32	0xbde3f0ad	-0.1112989
33	0x3cb33674	0.021876551
34	0xbd627600	-0.055288315
35	0xbdc315c2	-0.09525634
36	0xbe46f560	-0.1942954
37	0x3cebd6c4	0.028788932
38	0xbd10a0a7	-0.03530946
39	0x3b385a72	0.0028130081
40	0xbd275af6	-0.04085823
41	0xbbf5aee5	-0.0074976557
42	0xbd7f8dfe	-0.062391274
43	0xba60c915	-0.00085748854
44	0x3c94cbea	0.01816364
45	0xbd749d4f	-0.059720334
46	0xbc4c0559	-0.012452447
47	0xbc7e8d97	-0.015536687
48	0xbd572237	-0.052522864
49	0xbdb49f4d	-0.08819447
50	0xbdb7cb4d	-0.089743234
51	0xbd633cc3	-0.05547787
52	0xbd96f1c0	-0.07370329
53	0x3cce58ce	0.02518883
54	0xbdae4fb0	-0.08511293
55	0xbd7dfc4c	-0.062008187
56	0xbcc2d5ba	-0.023783553
57	0xbcf5b126	-0.029991698
58	0xbbf726ed	-0.007542482
59	0x3cc4eceb	0.024038753
60	0xbe3326e2	-0.17495301
61	0xbdf68915	-0.12037865
62	0x3d1b747f	0.037952896
63	0xbd238953	-0.039925884
64	0xbd67072b	-0.05640332
65	0xbd36c1c5	-0.044618387
66	0xbd861c69	-0.065483876
67	0x3c73e683	0.014886501
68	0x3c0e2cda	0.008677686
69	0xbc8bc48b	-0.017061492
70	0xbd976156	-0.07391612
71	0x3c3562ee	0.01107095
72	0xbdb150de	-0.08658002
73	0x3cb8af00	0.022544384
74	0xbceb27da	-0.028705526
75	0xbd78c977	-0.060739007
76	0x3c1ab022	0.009441407
77	0xbd2c3d36	-0.042050563
78	0x3c91bcbf	0.017790196
79	0x3c32fb98	0.010924242
80	0x3c84c3f7	0.016206725
81	0xbdb4131c	-0.08792707
82	0x3c5c6c56	0.013453564
83	0x3b11fbb1	0.0022275264
84	0xbd8c2435	-0.068428434
85	0xbca43fcb	-0.02004995
86	0xbdb9ba40	-0.090687275
87	0xbd847091	-0.06466783
88	0xbe936958	-0.28791308
89	0xbde4d69d	-0.11173747
90	0xbd5baaea	-0.053629793
91	0xbc3d3dd7	-0.011550388
92	0xbccbefd9	-0.024894642
93	0xbdd56094	-0.104188114
94	0xbdecbb69	-0.11559183
95	0xbc1a602f	-0.009422346
96	0xbd845ee2	-0.0646341
97	0xbca527ad	-0.02016052
98	0x3c9a7236	0.018853288
99	0xbc4c99aa	-0.012487808
100	0x3cae597f	0.02128291
101	0xbd9684cb	-0.07349547
102	0xbeeef54b	-0.4667152
103	0xbdc65a88	-0.09685236
104	0xbbb79c48	-0.005603347
105	0xbd13f214	-0.036119536
106	0xbe0e0742	-0.13869956
107	0x3cc8e99f	0.024525462
108	0xbd295a5e	-0.041345946
109	0xbcc34c06	-0.023839962
110	0x3ba2a7c9	0.004963849
111	0xbd9d3bd8	-0.0767743
112	0xbd04993f	-0.03237271
113	0xbe2af4d4	-0.16694957
114	0xbe805b4f	-0.25069663
115	0xbd4431b1	-0.047898952
116	0xbdcd5504	-0.10025981
117	0xbdb7c4d1	-0.089730866
118	0x3d66a012	0.056305
119	0xbe5bd50d	-0.21467991
120	0xbe01c895	-0.12674172
121	0xbde44467	-0.11145859
122	0xbceef14f	-0.0291678
123	0x3c2a836e	0.010407312
124	0xbd218801	-0.039436344
125	0xbd62c0d7	-0.055359688
126	0xbdf5586f	-0.11979758
127	0xbe4cabd0	-0.19987416

actor.6.weight f4 [8, 128]
0	0x39235592	0.00015576769
1	0xbb024e05	-0.001988293
2	0xbae919e4	-0.0017784205
3	0xbc51d779	-0.01280772
4	0x3a861dbf	0.0010232254
5	0x3c9568ca	0.018238444
6	0xba7813bf	-0.00094633916
7	0x3ca1b38f	0.01973894
8	0xbbe40f85	-0.006959858
9	0xbacc35b3	-0.0015579968
10	0x3b90eb9c	0.004422618
11	0xbc149bad	-0.009070319
12	0xbc3ccdf4	-0.011523712
13	0x3acfad4a	0.0015844491
14	0xbb3c09f9	-0.0028692468
15	0xbc5b367b	-0.013379688
16	0x3be2864f	0.0069129835
17	0x3ba9f304	0.0051864404
18	0xbb25c464	-0.002529406
19	0x3b1b2951	0.002367575
20	0xbb718743	-0.0036854304
21	0x3be83632	0.0070865387
22	0x3b0e9165	0.0021754142
23	0xbc899764	-0.016795821
24	0xbae6899e	-0.001758862
25	0x3b336453	0.002737303
26	0xbb09ee87	-0.0021046714
27	0x3afc61e8	0.0019255253
28	0x3c906c5d	0.017629797
29	0xbba3fbe7	-0.0050043943
30	0x3aaa2d8f	0.0012983548
31	0xbb8e3524	-0.004339831
32	0xbaefa45b	-0.0018283235
33	0x3aa29e1f	0.0012406743
34	0x3c85cd2e	0.016333189
35	0x3b7b63a1	0.0038358944
36	0x3b0ed52f	0.0021794548
37	0xbb9cfeb4	-0.004791105
38	0x3ba5ebb1	0.005063497
39	0xbb6469f9	-0.0034853204
40	0xba6d4580	-0.0009051189
41	0xbb139340	-0.0022518188
42	0x3c16eeca	0.009212205
43	0x37b80410	2.1936401e-05
44	0x3b7cbe6a	0.0038565644
45	0x3d123d74	0.035703138
46	0xbadf122d	-0.0017018967
47	0xbc3c7bab	-0.011504094
48	0x3a56c920	0.0008193422
49	0x3c49881e	0.012300519
50	0x3bb7d177	0.005609687
51	0xba9d3312	-0.001199337
52	0x3c6c2f34	0.014415551
53	0xbb2f71a0	-0.0026770607
54	0x3c122887	0.008920795
55	0xba63b541	-0.0008686372
56	0xbb6c338f	-0.0036041474
57	0xba1e6ac2	-0.000604313
58	0xbbb11551	-0.0054041524
59	0xb9ed2bcb	-0.0004523679
60	0xbc9206bb	-0.017825475
61	0x3cf63bfd	0.030057902
62	0xbaae730b	-0.0013309432
63	0xbca2f564	-0.019892402
64	0x3cc86d73	0.024466252
65	0xb914ff45	-0.00014209475
66	0x3a88e835	0.001044518
67	0x3b92a081	0.0044747
68	0xbc29e5da	-0.010369742
69	0x3cfd406c	0.030914508
70	0xbb9eb5d1	-0.0048434515
71	0x3a8c8f8b	0.0010723931
72	0xbccb7dd3	-0.024840271
73	0xbca872fe	-0.020562645
74	0xbd1740e3	-0.036927115
75	0xba0f98d7	-0.0005477792
76	0x3b8c9f74	0.004291469
77	0xbb587b73	-0.0033032566
78	0x3b1bbd83	0.002376408
79	0x3c90e91c	0.01768928
80	0xbb53a633	-0.0032295107
81	0x3c91143d	0.017709846
82	0xbad5585a	-0.0016276941
83	0x3abfcf02	0.0014633837
84	0xbd300fa8	-0.04298368
85	0x3b278262	0.0025559892
86	0x3a5e7448	0.0008485955
87	0xbb7a7a87	-0.0038220005
88	0xbcaeaf6d	-0.021323884
89	0xbcc3d4b1	-0.02390513
90	0x3b430ce1	0.0029762315
91	0xbb0569be	-0.0020357217
92	0x3bc179b2	0.0059044
93	0xbab4bcad	-0.001378914
94	0x3ce1c6f5	0.02756069
95	0xbab2ec3a	-0.0013650723
96	0xbba95047	-0.0051670405
97	0x3b5a7c33	0.0033338189
98	0x3a975297	0.0011545
99	0xbb2691b6	-0.002541644
100	0x3c0dadf5	0.008647432
101	0xbd677347	-0.05650642
102	0xbcbe477c	-0.023227446
103	0xbb9fb10c	-0.0048734006
104	0x3c0542b6	0.008133581
105	0x3c3a83f2	0.011383997
106	0xbb9d9b80	-0.004809797
107	0xbb632c12	-0.003466372
108	0xba2134dc	-0.0006149539
109	0xbb4efa0f	-0.0031582152
110	0xbd73162c	-0.059347317
111	0x3a2cde9d	0.0006594451
112	0xbaeaf515	-0.0017925823
113	0xb9895fa9	-0.0002620195
114	0x3d207b9a	0.039180376
115	0x3ba276b6	0.004957999
116	0x3c72d596	0.014821431
117	0x3cc99fe3	0.024612373
118	0x3bb9419b	0.0056535727
119	0x3d20db8c	0.039271876
120	0xbc85274e	-0.016254093
121	0xbc7c5fa6	-0.015403664
122	0xbc6dd595	-0.014516254
123	0x3bb1a6fe	0.0054215183
124	0xbba31490	-0.0049768165
125	0x3ba6e782	0.005093516
126	0xbb524419	-0.0032084046
127	0x3c8cf949	0.017208712
128	0xbc0198c3	-0.007909956
129	0x3d004f47	0.031325605
130	0xbb42f848	-0.0029750038
131	0xbc572848	-0.013132162
132	0xbba1742a	-0.004927178
133	0xbd0c3e1f	-0.03423893
134	0x3c4365c5	0.011926119
135	0xbc5bd7dd	-0.013418165
136	0xb9766054	-0.00023496273
137	0x3c0e1fc1	0.008674563
138	0x3b265997	0.002538299
139	0x3c6dced1	0.014514641
140	0xbc8ad77c	-0.016948454
141	0xbb037979	-0.0020061417
142	0xbc2c8a9c	-0.010531094
143	0x3c9e5607	0.01932813
144	0x3c0055c0	0.007832944
145	0xbc903b9f	-0.017606555
146	0xbc5d94df	-0.013524263
147	0xbab6f82f	-0.0013959463
148	0x3b9d3874	0.0047979895
149	0xbaffd2ee	-0.0019517818
150	0x3b9e5a20	0.004832521
151	0xbc92dfc7	-0.017928971
152	0x3d31c091	0.043396536
153	0xbce5c365	-0.028047273
154	0xbbc7d2e5	-0.0060981386
155	0x3bcca483	0.0062451973
156	0x3a8bde9f	0.0010671205
157	0xb9ddc07e	-0.00042295823
158	0x3cbda2db	0.023148945
159	0x3c13ddcf	0.009025051
160	0xbbb0bf3c	-0.0053938907
161	0x3b8cebb2	0.004300558
162	0xbc1c1c48	-0.009528227
163	0x39f42cca	0.00046572677
164	0x3d233ca1	0.039852742
165	0x3a92bef1	0.0011195821
166	0xbb58e1f8	-0.0033093672
167	0xbbe37834	-0.0069418196
168	0xbaf632ed	-0.0018783488
169	0x3acbf4d7	0.0015560639
170	0x3bde4f73	0.0067843734
171	0xbc02df20	-0.007987767
172	0xbbe3aeac	-0.0069483127
173	0xbc324516	-0.010880729
174	0x3c115cd7	0.008872232
175	0xbb824226	-0.0039751707
176	0x3ba15bac	0.004924258
177	0xbce3808e	-0.02777126
178	0x3b919c78	0.0044437014
179	0x3bd08f06	0.006364706
180	0xbc4c177a	-0.012456769
181	0xbb8acb4c	-0.0042356607
182	0x3ba06bf8	0.0048956834
183	0xbaeed0bc	-0.0018220167
184	0xbaf1a038	-0.001843459
185	0xbb2b2210	-0.0026112832
186	0xbbce3da2	-0.0062939683
187	0x3b8d3e57	0.00431041
188	0x3bc3f917	0.0059806216
189	0xbc85e47d	-0.016344303
190	0xba9dad40	-0.0012029782
191	0x3b05a8fa	0.0020394907
192	0x3c100647	0.008790559
193	0x3c0def3e	0.008662997
194	0x3be21ffd	0.006900786
195	0x3c3c570a	0.011495361
196	0x3c02ce87	0.00798381
197	0xbce7264a	-0.0282165
198	0xba53bfcb	-0.00080775906
199	0x39917feb	0.00027751861
200	0x3cb418b5	0.021984437
201	0xbc5a5e74	-0.013328183
202	0x3d6e29e2	0.05814541
203	0x3b2ddafa	0.0026528225
204	0xbbed6c7b	-0.007245598
205	0x39ff4b79	0.00048693622
206	0xbbb79e25	-0.005603569
207	0xbc80f637	-0.015742404
208	0xbac76944	-0.0015213867
209	0x3c7f562d	0.015584511
210	0x3c025cea	0.007956723
211	0xbaaf96de	-0.0013396402
212	0x3cbb3bcf	0.022855667
213	0x3b00d191	0.0019656161
214	0xbb4d7cb0	-0.0031354837
215	0x39e39b1d	0.00043412382
216	0x3c7835e8	0.015149571
217	0x3ca077a7	0.019588305
218	0x3ada3887	0.0016648927
219	0xbae0d167	-0.001715225
220	0x3bd96aa7	0.0066350284
221	0x3ccc9ddd	0.024977619
222	0xbbaaffc3	-0.0052184775
223	0xba1d09c8	-0.0005990532
224	0xbb24b2d4	-0.0025131004
225	0x3c32617a	0.010887498
226	0x3b50f99b	0.0031887058
227	0xbc161246	-0.00915963
228	0xbbdb09aa	-0.0066845017
229	0x3d3385c5	0.043828744
230	0x3cb8404a	0.022491593
231	0xbbb1d165	-0.005426573
232	0xbc43eb78	-0.011957996
233	0xbbd4db1a	-0.0064958455
234	0x3c99dd88	0.018782392
235	0xbc097a64	-0.008390997
236	0x3c28517c	0.010273334
237	0xbb69110b	-0.0035563137
238	0x3d1cf1fa	0.038316704
239	0x3b2539e0	0.0025211498
240	0x3b7886c1	0.0037922116
241	0xbcded493	-0.027200973
242	0xbd3256cc	-0.043539807
243	0x3c4c24ea	0.012459973
244	0x3b6a91de	0.003579251
245	0xbd1879a4	-0.03722538
246	0xbb665c9d	-0.0035150417
247	0xbcfe70eb	-0.031059703
248	0x3b80de79	0.003932771
249	0xbc792a65	-0.015207862
250	0x3bd844f0	0.006600015
251	0xbcf04e78	-0.029334292
252	0x3ae0c77b	0.0017149294
253	0x3bcf924d	0.006334579
254	0x3c8f19d8	0.017468378
255	0xbbadc881	-0.005303443

actor.6.bias f4 [8]
0	0x3d3766fa	0.04477594
1	0x3b3329a3	0.002733805
2	0x3d32f512	0.04369075
3	0xbbad926b	-0.0052969954
4	0xbcfca091	-0.030838283
5	0xb9ec0c83	-0.0004502275
6	0x3becfe36	0.0072324527
7	0x3d074826	0.03302779
